mnist_net.pth (torch, 427463 bytes, 10 tensors)

conv1.weight f4 [6, 1, 3, 3]
00000000: cce5 693f 4e72 5f3f 407f 8e3f 7c4c 7c3f
00000010: d71f ac3f 081e 903f 8b9d a23e 07f0 953f
00000020: 7be7 983f 133c a83e cb8e b3be 284a 48be
00000030: 4700 afbd 7dae 50bd 3951 86be 34b0 ea3e
00000040: a09c 8c3e 9d52 093f 80eb 95be acbc 893e
00000050: dd76 6d3e 22e6 c3be 75e1 15be f1bd d43e
00000060: a9ed 00bd 7ef7 9f3e 766c 943e 8ce8 723f
00000070: b1a1 8e3f 1cbf 593f 9de8 3e3f ab15 903f
00000080: 58f3 173f 3700 a23d e145 563f f7c0 133f
00000090: 5801 603f fd2c 4f3f a994 4d3f fcb6 9f3e
000000a0: 9c3b 433f b52f 103f 8dc9 cc3d c851 91be
000000b0: d7a6 85bd 3553 753f 54c4 893f 850b 4f3f
000000c0: 4c55 c03e ced0 8d3d 4b56 af3e c2d3 553d
000000d0: e3f4 be3e e9d3 89bd
0.9136627 0.8728379 1.1132584 0.98554206 1.3447217 1.1259165 0.3176082 1.1713876
1.1945642 0.32858333 -0.3506988 -0.19559538 -0.08544975 -0.050947655 -0.26233843 0.45837557
0.27463245 0.5364168 -0.29281235 0.26901758 0.23189874 -0.38261515 -0.14636786 0.41551164
-0.03147665 0.3124351 0.28989 0.9488609 1.1143094 0.85057235 0.7457369 1.1256613
0.5935569 0.07910197 0.83700377 0.57716316 0.8750205 0.8092802 0.8030496 0.31194293
0.7626283 0.56322795 0.0999938 -0.28382707 -0.06525963 0.9583009 1.076304 0.8087695
0.37565076 0.06924592 0.34245524 0.0522039 0.3729621 -0.06729872

conv1.bias f4 [6]
00000000: dcd6 893c 00a7 edbd 23f7 4a3e 9420 453e
00000010: 1f47 833e ac06 763e
0.016826086 -0.11604118 0.19820838 0.19250709 0.256402 0.24025983

conv2.weight f4 [16, 6, 3, 3]
00000000: baa9 d4bd 90f0 123e 35ed ef3d 50c4 db3d
00000010: 232b 21bd 2015 58bd a660 ff3d 5006 9a3d
00000020: 6579 67bb 46e6 c8bc 0090 acbd 10fd 643d
00000030: e15b 0c3d 1fd0 6abd 5ac9 15bc 904a e83d
00000040: 0659 9a3c 1be4 78bd 588c 1e3c c45a 7dbd
00000050: b456 c3bd 53c5 033e 8866 a23d fe3e 91bb
00000060: 62bd 4fbd c53a 893d 1804 063d fd8b a83d
00000070: cdf3 86bd dbd8 85bc 0f35 6dbd 9205 8cbd
00000080: 772c 143d 634d 08be 12ec cebd 45ec 22bd
00000090: 266e a6bd 40ca a8bc 9c52 003e 6633 b9bd
000000a0: 31b8 93bc 9524 87bd 2e86 0abe 30b3 c43d
000000b0: 534c 92bd 90ac b0ba 9b25 dcbc 08e8 ad3d
000000c0: 1f0d b43d 779a f6bd 5abf 97bd 7970 a8bd
000000d0: ae54 b0bd c942 b03c 4d63 b23e a153 063f
000000e0: f844 ae3e 1d79 e6be 5ba7 dcbe 8821 59bd
000000f0: 6e68 5bbe 7168 a3be 43f8 2e3c 0045 8a3b
00000100: 32a7 363e 81d6 023e c9ea 153e a9c0 d9bc
00000110: d549 8a3c a6c5 323d 238e 69bd 9cb8 5e3d
00000120: 391e 8ebd e1ed a63d 2b89 1b3d de82 3bbd
00000130: 67bc 0fbe 1b1b 183e c1dd d63d f846 6dbd
00000140: 215e 193e 7a62 a23e 382c ee3e 0157 8a3e
00000150: 1199 bbbe 47af 03be 845e 543e da4f 85be
00000160: 94b0 66be 44d8 08be 15a9 833e c854 b33e
00000170: 70c7 aa3e 1cb7 6fbd dfd1 5c3b 8d65 903e
00000180: cfce febd b14b b7be 51d8 563d 8430 1b3d
00000190: 3a9f 933e 7317 0e3e a3b6 d8bd 0be8 fd3d
000001a0: aca5 693e 6749 adbe 7c21 62be bc70 f0bd
000001b0: e103 b43d bd9f 5c3e ba3b cc3e edfc a63e
000001c0: 8b78 623d 7817 3ebe bc4a 9fbe 48fd bebe
000001d0: 2929 56be 575d f43d 0314 e23d c7cd 5b3d
000001e0: d259 be3c 6275 b1bd f925 d5bc 17ca 58bc
000001f0: fc75 093e 040f bbbd 9272 903d 74b2 063d
00000200: a965 cc3d c344 c43d 04ce 09be 709f cf3c
00000210: 6efe cd3c f6bf 493d 57c7 433d b548 8abd
00000220: b311 e23d b369 883d 54f5 f83d 2060 063e
00000230: ddc5 1dbd fd2b 83be 05ad adbe edca 35be
00000240: 521b 0f3e b9f0 58bd 0f8e f13d 6806 ae3e
00000250: 7161 b03e f035 113e 014b 3f3d ffc1 debd
00000260: d0a9 82bd d3a9 d93d bc6a debd 05b1 363e
00000270: 9321 0d3e a862 8d3e 3333 603e ea6c dbbd
00000280: 79ab 62bd 9344 fcbc e096 b63e 55a3 9b3e
00000290: 9457 d13d 85f7 d93e 2ad3 643e 59c3 02be
000002a0: 500f ef3e 0ab7 6e3d 67a1 62be 7d74 393d
000002b0: 0dfe b73d f6d9 583d 2a94 febd 8536 e93a
000002c0: 5eed 523d ee07 8e3c 3f4b b33d 2366 82bd
000002d0: a2dd 073e 9e3c e5bd d9cb da3d b52e 8b3d
000002e0: c591 a43d db4f 09be f263 153e 96c4 f23d
000002f0: 107c c23c 97e5 bd3e cb90 d63d 8f5d 86bd
00000300: 5567 773e 8226 d93d 07fc 66bd c61e 483e
00000310: 9246 1e3d 0266 5cbe 2d38 493e 7d98 28bc
00000320: 2005 3fbd edfe ba3d f323 aebc 6a76 aebd
00000330: 599c 8f3e f1f0 04be 2167 43be 9e2a 783e
00000340: 0ed8 923d 4c4c 823d 5558 4e3c 902b ebbc
00000350: 547a 14bc fc73 943e 27c4 8ebc d53c cbbd
00000360: 3299 8abe e3d8 6e3d 08ad 993e ce31 633d
00000370: adad ff3e 950d 193e 7a76 b63e 04e1 ab3e
00000380: 30f0 53be d00c 2cb8 55a7 a33c f555 d33c
00000390: d8b3 c8bd 428b e6bc 0635 cdbc 541e c53d
000003a0: 6799 77bd 8b81 0dbd 7047 d8bc d8da ed3d
000003b0: 2215 a73c 2cc4 043e 553a 5f3c 88e2 5abd
000003c0: 5b3f 283e 0d49 f3bc 8474 25be fb8c 23be
000003d0: 5270 e53d 33f5 7c3d 6eaf c03d ec30 f93e
000003e0: f60f e23d 6129 b23e faca d33e 3514 f43d
000003f0: 76e0 8abe c02b 923d 1b71 ca3d c313 01be
-0.10383935 0.1434958 0.117151655 0.10730803 -0.03934778 -0.05275452 0.12469606 0.07520735
-0.003532016 -0.024523865 -0.08425903 0.0559054 0.03426731 -0.057327386 -0.009142244 0.11342347
0.018841278 -0.060764413 0.009677015 -0.06185414 -0.09538022 0.12868242 0.079297125 -0.004432558
-0.05071772 0.067006625 0.032718748 0.08229826 -0.0658947 -0.016338756 -0.05791193 -0.06837
0.036175217 -0.1331077 -0.101036206 -0.039776105 -0.08126478 -0.020604253 0.12531513 -0.090430066
-0.018032165 -0.06598774 -0.13527748 0.0960449 -0.07143464 -0.0013479162 -0.0268734 0.08491522
0.08791565 -0.120411806 -0.07409544 -0.082245775 -0.08609901 0.02151622 0.34841385 0.5247136
0.34036994 -0.45014277 -0.43096432 -0.053010494 -0.21426556 -0.3191562 0.010679307 0.004219651
0.17837217 0.12777139 0.14640345 -0.026581125 0.016880909 0.043645523 -0.057020318 0.054375276
-0.06939358 0.081508406 0.03797261 -0.0457791 -0.14036714 0.1485409 0.10491515 -0.05792901
0.14977314 0.31715757 0.4651811 0.27019504 -0.36640218 -0.12859832 0.2073918 -0.26037484
-0.22528297 -0.13363749 0.25714937 0.3502562 0.33355284 -0.058524236 0.003369443 0.28202477
-0.12441789 -0.35799935 0.05245239 0.037888065 0.28832418 0.13876133 -0.1058171 0.12397774
0.22817105 -0.33845064 -0.22083086 -0.117402524 0.08789802 0.2154531 0.39889318 0.32614842
0.05529074 -0.1856364 -0.31111705 -0.37302613 -0.20914139 0.11931866 0.11038973 0.05366304
0.023236189 -0.08664967 -0.026019083 -0.013231776 0.13423914 -0.091337234 0.070531026 0.03288503
0.09980328 0.09583428 -0.13457495 0.02534458 0.025145736 0.049255334 0.047797527 -0.06752149
0.11038532 0.066607855 0.121561676 0.13122606 -0.038518775 -0.25619498 -0.33921066 -0.17753191
0.13975266 -0.052963946 0.11794674 0.33989263 0.34449342 0.14180732 0.04670239 -0.108768456
-0.063800454 0.106280945 -0.10860202 0.17840965 0.13782339 0.2761433 0.21894531 -0.10714133
-0.05533931 -0.030794417 0.35661983 0.3039805 0.10221782 0.42571655 0.22346178 -0.12769832
0.4669137 0.05828003 -0.22131883 0.045277108 0.08984003 0.05294224 -0.12430604 0.0017792737
0.051495902 0.017337766 0.087545864 -0.06367137 0.1326814 -0.111932024 0.10683412 0.06796018
0.08035616 -0.13409369 0.14588907 0.11853902 0.023740798 0.37089226 0.10476836 -0.06560814
0.24160512 0.10603048 -0.056392696 0.19542989 0.03864152 -0.21523288 0.19650336 -0.010290262
-0.046635747 0.091306545 -0.021257376 -0.085186794 0.2804897 -0.12982537 -0.1908231 0.24235007
0.071701154 0.06362209 0.012594302 -0.028707296 -0.009062368 0.2899474 -0.017427517 -0.09923712
-0.27070004 0.058312308 0.30014825 0.05546742 0.49937192 0.14946587 0.35637265 0.3357011
-0.20697093 -4.1019928e-05 0.019977251 0.025797823 -0.097999275 -0.028142575 -0.025049698 0.09624925
-0.06044903 -0.03454737 -0.026401252 0.11614007 0.02039582 0.12965459 0.013624747 -0.053438693
0.16430418 -0.02969792 -0.16157728 -0.15971749 0.11203064 0.061757278 0.094084606 0.48670137
0.110382006 0.34797195 0.41365796 0.11917917 -0.27124375 0.07137251 0.098848544 -0.12605195

conv2.bias f4 [16]
00000000: 4c06 f33d 2a4c 00be 291f a23a 7542 e93d
00000010: 1805 123d 7b28 c1bd 209b a23d 7cca 8f3d
00000020: 53a8 53bd 4f77 df3d 53d1 08be ff30 883d
00000030: 9e35 95bd 663c c83d 1ac6 263e 4ac6 083e
0.118664354 -0.12529054 0.0012368906 0.11389629 0.03564939 -0.09431549 0.07939744 0.07021043
-0.0516742 0.10911428 -0.13361101 0.0664997 -0.07285617 0.09777145 0.16286507 0.13356891

fc1.weight f4 [120, 784]
00000000: 47e0 9a3c 361d 14bb 6d7b 523c 2a58 313c
00000010: 1ac0 3ebb 5a0b a93c 8879 e6bc a44b dfbc
00000020: 7d91 8bbb 572d f53c fa85 d53c c71a 963b
00000030: f6eb c23c fb5b 81bc 620d c13c 6ed4 b7bc
00000040: f912 bfbb 66f4 b8bc 605c 6a3b 121e d5bb
00000050: 89b5 b3bc 0357 0bbc 1870 8dbc e152 03bd
00000060: b3b8 bc3c d554 06bd e4de 66bc c317 033d
00000070: d47a ef3c 9680 893c c181 4e3c a9f5 5a3c
00000080: 1515 313c edbf afbc 9ee5 9fbb b08b 033d
00000090: 1c41 b53c d81c d0bc 1b90 8bbc cfa2 df3c
000000a0: f5d0 8b3c 7e79 d3bb 1400 aa3b 7069 dcbc
000000b0: e109 873a 5d1b 573c 441f 813c c132 bbbb
000000c0: 5dd4 44bc 735b 75bc bb35 95bc c125 e5bc
000000d0: 09cf dd3c e4eb 173d 0e65 dfbb a591 0fbd
000000e0: 8a12 f63c a2f0 7bbc 1c6b 96bd 84e9 94bd
000000f0: fab1 25bc dd71 d73c 375e 8fbc 09f8 b4b9
00000100: b389 d7bc 203a 5fbd 29b7 0ebc 3422 5a3d
00000110: 4f5b 453d c79d 363d 646a 08bd 774d 32bc
00000120: 0c7c c3bc 456d 393c 7d24 40bd 80a4 4cbd
00000130: 7c0d 473c c0e1 ca3c 0d4f 4cbd 399c 6dbd
00000140: 7c99 ff3b 402e 86bd efec 31bd e2a4 45bc
00000150: 7f34 adbc 83e4 263d 5430 02bd 44cd d1bc
00000160: e0cc 3bbd 5652 87bc 45c7 ffbb 0481 d7bc
00000170: 9ece fa3c f573 203d a2b0 833b bf15 d83c
00000180: 8b5d d3bb 01f0 153d 5757 843c e9dc 20bc
00000190: 58aa a33c 0437 3fbb 5223 05bd 8e62 ed3c
000001a0: 9133 fe3c c7f6 c3bc 3984 1ebd e523 c9bc
000001b0: 765f 89bb 5e06 b03c ac66 3c3b 7181 373d
000001c0: 909a febc 62fd b13c 9f9c 9dbd 6e45 8bbd
000001d0: ab05 05bd ea93 d53c e2ed 01bc 7793 4a3b
000001e0: 9721 8bbc b4e8 55bd 3cd3 8ebd d7bc f83b
000001f0: 9233 a1bc feb0 cd3c e212 dbbc d595 853c
00000200: cf5f d43c 27a9 123d 3974 81bc c853 0dbd
00000210: 3663 6b3c d31e 6c3c 403b b7bc d05a 2cbc
00000220: 577e bb3c 4ce9 593c d452 2dbb 4b16 77bc
00000230: f7c1 1abc 86c5 1e3c 050e 173d 9b6f 52bd
00000240: a652 36bd 0ee8 ce3c 40ef 75bc 8b12 d7bc
00000250: 3240 853b 2406 fd3b 1327 79bc 19c2 993d
00000260: a2ef d63b 2c3e d9bb c6b2 113d f85b e6bc
00000270: 25a9 313d e16f af3c a91c 713a 356d 8c3b
00000280: 3d4d 33bc 679f ef3b 0035 c5bc 24b9 5d3c
00000290: fce7 e13c 639c 353c 9844 10bd 0944 68bd
000002a0: e312 173d d186 d73a 0b6d 4d3c 5148 053d
000002b0: 8072 913d 8d3f 66bc f4d1 2d3b bd30 593c
000002c0: c905 123d d455 aa3c 8a51 97bc b69b c13c
000002d0: 52d8 f3bb 1a36 91bc eda7 603c df58 c6bc
000002e0: 1f86 8ebb cc7e ffbc a7b7 013d ec26 39bd
000002f0: 75b6 093d f0b4 e23c f900 e73c c6e8 6ebc
00000300: 9115 c0bb 3c6d 85ba 5e7f 5c3c 462f 153d
00000310: 951a 093d 160b e73c c473 5fbd bfda 5a3b
00000320: 2f8f 843d 4c0e 82bc f84e 0dbd eecc dd3c
00000330: 8533 ec3c e765 a7bc f5f3 3c3c 46a7 293d
00000340: f00a a43c 63fb d4bb d32b 243d ed56 7bbd
00000350: 733b a8ba 3879 3fbd 145e fa3c 2f1a 643b
00000360: fd65 133c 7e5d cd3c 5965 d039 2ba9 f8bc
00000370: b95e 3b3d 6dfd 29bd bf41 92bd 0208 3fbd
00000380: 8872 0e3a f6a1 e23c b049 c33c 5a6a 163d
00000390: df0a 9d3d db58 2b3c 6448 adbc b825 debc
000003a0: 032d a2ba caf4 b43c 70b5 0bbd a63e a23d
000003b0: e34e 383c 86d2 633c 908f 78bc 40d8 10bd
000003c0: 0d7e 853c d898 9dbc 2311 b33a 76a8 373b
000003d0: 4914 99bc 358a b4bb 6bc3 0abd 4946 8bbc
000003e0: 28cd 27bd 670a a5bc f02d 8f3b 3152 d8bb
000003f0: ea8f 1d3c 8b7e 0abd ba6a 123c c00b 38bb
0.018905772 -0.002260042 0.01284681 0.010824243 -0.00291062 0.020635296 -0.028134122 -0.027257748
-0.004259287 0.029928846 0.026064862 0.004580829 0.023794156 -0.01579093 0.023565952 -0.022440162
-0.005831119 -0.022577476 0.0035760626 -0.006503829 -0.021937149 -0.008504632 -0.017265365 -0.03206146
0.02303729 -0.032795746 -0.014091227 0.032005083 0.029233374 0.016784947 0.012604178 0.013364234
0.010808249 -0.021453822 -0.0048796674 0.03211564 0.022125773 -0.025404379 -0.017036488 0.027299313
0.017067412 -0.006453692 0.0051879976 -0.026905745 0.0010302627 0.0131290825 0.015761979 -0.0057128374
-0.012013522 -0.0149754165 -0.018214097 -0.027972104 0.027076261 0.037090197 -0.0068174666 -0.035051007
0.030038137 -0.015377196 -0.07344648 -0.07271102 -0.010113234 0.026299411 -0.01750098 -0.00034517076
-0.026310777 -0.05449879 -0.008710661 0.053255275 0.04818278 0.044584062 -0.033304587 -0.010882727
-0.023862861 0.011317556 -0.046909798 -0.049961567 0.012149211 0.02476585 -0.049880076 -0.058010314
0.007800279 -0.0655179 -0.043438848 -0.012063237 -0.021143196 0.04074527 -0.03178437 -0.025610574
-0.04584968 -0.016518753 -0.007805737 -0.026306637 0.0306161 0.039173085 0.004018859 0.026377557
-0.00645036 0.03660584 0.016154928 -0.009818294 0.019978687 -0.002917708 -0.032504387 0.028977659
0.031030448 -0.023921384 -0.038700316 -0.024553249 -0.004192288 0.021487411 0.002874772 0.04480118
-0.03107956 0.021727268 -0.07695889 -0.06800352 -0.03247611 0.026071507 -0.007930251 0.003091065
-0.01698379 -0.052223876 -0.069738835 0.007590871 -0.019677911 0.02510881 -0.026742402 0.016306797
0.025924591 0.035805847 -0.01580249 -0.03450373 0.014366915 0.014411646 -0.02236712 -0.010519698
0.022887392 0.013300251 -0.0026447074 -0.015080999 -0.009445659 0.009690648 0.036878604 -0.051375967
-0.044512413 0.025257137 -0.015010655 -0.02625396 0.0040664906 0.0077216793 -0.01520707 0.07507724
0.006559328 -0.006629726 0.035570882 -0.028120026 0.0433742 0.021415653 0.0009197691 0.0042854794
-0.010943708 0.0073127034 -0.024073124 0.0135329105 0.02757644 0.011084649 -0.035221666 -0.05670551
0.036883246 0.0016443377 0.012538205 0.03253967 0.07101917 -0.014053238 0.0026522847 0.013256249
0.03565005 0.02079288 -0.018471498 0.02363382 -0.007441559 -0.017725993 0.013711912 -0.024212299
-0.0043494846 -0.031188391 0.031669285 -0.045203134 0.03362127 0.027674168 0.028198706 -0.014581865
-0.005861946 -0.0010179649 0.013458101 0.036422037 0.033472616 0.028203528 -0.054553762 0.0033394543
0.064726226 -0.015875958 -0.03449914 0.027075257 0.02883316 -0.020434333 0.011532773 0.04141929
0.020024747 -0.006499694 0.040080857 -0.061362196 -0.00128351 -0.046746463 0.030562438 0.0034805646
0.008996484 0.025068995 0.0003974836 -0.030354103 0.04574463 -0.04150145 -0.07141446 -0.046638496
0.00054339366 0.02766512 0.023838848 0.03672252 0.07668089 0.0104581965 -0.021152683 -0.027117595
-0.0012373034 0.02208938 -0.03410858 0.079221055 0.011249277 0.013905173 -0.015170947 -0.035362482
0.016295457 -0.01923792 0.0013661723 0.0028023995 -0.01868643 -0.0055096396 -0.03387777 -0.017001288
-0.040967137 -0.020146562 0.00436949 -0.006601595 0.009616831 -0.033812087 0.008936578 -0.0028083175

fc1.bias f4 [120]
00000000: e9b8 003d 8eb3 933c 6014 25bc 3557 353c
00000010: 16ad 51bc fdfd a939 2618 cfbc 4378 583c
00000020: 4b18 16ba 5466 c93c be49 a5bc 6056 a5ba
00000030: 3bc6 463b d039 503c c106 76bc 6b34 65bb
00000040: 671b 073c 8bcd 2d3c 76d0 bcbb f253 663c
00000050: 9483 b1bc 9727 0cbd b980 cebc 8c2b 983c
00000060: 8ecd ba3c e805 8ebc 6817 8cbc 0964 b43c
00000070: 09ea 1d3d f447 2b3c e559 863c 8784 ea3c
00000080: fd11 3bbc efe2 2e3d ae35 183d d246 033c
00000090: d2e9 ccbc 83ba cc3c 1af6 14bd 33ac 4d3c
000000a0: 58cc b63b 777a 833a 6abc d8bc c352 b33b
000000b0: 4196 babc b188 183a 0ac4 f7ba e36d 29ba
000000c0: f7a0 4ebc 13c2 3bbc c0e2 d93b 398d a53c
000000d0: 3a08 c0bc 3625 093c 0eee 533c 85d6 fe3b
000000e0: db61 e9bc e73a d2bb c838 0f3c afee b23b
000000f0: fd84 2ebc b5d8 fd3c e57b 043c aff5 663c
00000100: 226b d63c 2999 963c 9959 0abc 9d14 e53b
00000110: 362c a03c 7322 ff3b d166 26bb 58c5 063d
00000120: 07f6 0fbd 3b92 443c bba2 ce3c b3f0 f63c
00000130: b19e 0b3d 007c 853a 0eb6 a4bc 51da b4bc
00000140: b425 ca3a f7fc 683c fe81 e53c 6370 f4bc
00000150: fa91 6cbc a9b9 8c3b 8d39 7f3c b9c1 8abb
00000160: cd89 00bd 2dba 22bd eeb0 b53c 2c6a 233d
00000170: 5377 373d 45be bf3c 61bd 093c b134 9ebc
00000180: efa4 2c3d a026 c8b7 5a16 2abd 85ad adbc
00000190: d6ae 183c 2ae2 e53c 68a9 05bd 99c1 f7bc
000001a0: 23ee 73bc 7702 13bc 3707 333d 17bb f43c
000001b0: f08c 0b3d 3119 d0bc 9363 c73a 4c9d 4c3c
000001c0: 4b7a b8bc e74a 86bc 991b 8f3c 5618 42bc
000001d0: 9dbe cdb8 8f52 783c f8f8 d9bc 940f 363d
0.031426344 0.018029954 -0.010075659 0.011068155 -0.012797615 0.00032423428 -0.02528007 0.013212266
-0.0005725666 0.024584927 -0.020176765 -0.0012614243 0.0030330557 0.012709096 -0.015016259 -0.003497387
0.008246279 0.010608087 -0.005762155 0.0140581 -0.021669187 -0.034217443 -0.025207864 0.018575452
0.022803094 -0.0173368 -0.017101005 0.022020357 0.03855327 0.010454167 0.016400287 0.028627647
-0.011417863 0.04269689 0.037160568 0.00801249 -0.025013838 0.02499128 -0.036367513 0.0125532625
0.005578559 0.0010031004 -0.02645703 0.0054725125 -0.022776725 0.00058187085 -0.0018903029 -0.0006463213
-0.012611619 -0.011459845 0.006649345 0.020208942 -0.023441423 0.008370688 0.012935175 0.0077770376
-0.028489044 -0.006415713 0.008741565 0.005460582 -0.010651824 0.030987123 0.008086179 0.0140966615
0.026174132 0.01838358 -0.008444213 0.0069909827 0.019552331 0.007786089 -0.0025390873 0.032903045
-0.03514674 0.011997755 0.02522408 0.030144071 0.034086887 0.001018405 -0.020106342 -0.022076758
0.0015422613 0.014220468 0.028016087 -0.029838746 -0.0144391 0.0042945934 0.015577686 -0.0042345193
-0.031381417 -0.039728332 0.022179093 0.039896175 0.04479153 0.023406157 0.008406968 -0.019312235
0.04214948 -2.3859844e-05 -0.041525222 -0.021200905 0.009319028 0.028061945 -0.03263226 -0.030243682
-0.014888319 -0.008972756 0.043708052 0.029874368 0.034069955 -0.025402637 0.001521217 0.012488674
-0.022519251 -0.016393138 0.017469214 -0.011846622 -9.810666e-05 0.015156402 -0.026607975 0.04444845

fc2.weight f4 [84, 120]
00000000: 8081 a4bd b458 8fbd 65eb b2bd 662f 63bd
00000010: 3070 833d 0643 fbbc a6b3 93bd 5ac7 1fbd
00000020: 5402 daba 28b2 7fbd 5dcc b63b a0ee 803c
00000030: 27d7 afb9 2d60 7ebd 53bb 8e3c 17f7 26bd
00000040: f304 69bc 4d80 7b3d 1843 03bd 3115 aabd
00000050: 036c a1bd 1bca 9e3d 6c4f bbbc 2010 febc
00000060: 36f7 08bb 3f63 2cbd a074 a03d 5d49 283d
00000070: 4800 a63d ef84 ddbc d4d6 91bd 2be3 a4bc
00000080: 1ff8 873d af52 01bd c716 99bc 92c4 25bd
00000090: 11c5 87bd 941d 403c 6304 013d b172 6cbd
000000a0: 6336 aebd 6a55 d2bb 2013 adbd ab0f 6abd
000000b0: 837c 643b c8c7 803d 686d b13c 2e47 5fbd
000000c0: 06c0 a9bd 54ff 953d 1827 7abc 73ae 42bd
000000d0: d291 873d babb 983b bfec 2bbd 886a 793d
000000e0: 44de 9abd fc9d aabd 78d9 613c 5079 80bd
000000f0: b78d ac3d ce26 d83c 9371 9f3d e3da a1bd
00000100: 6f7e 07bd 76cb 9cbd 4cb9 dabc 0ff5 7b3d
00000110: de40 be3c b49c 83bd ab20 5bbd 4454 0f3d
00000120: 6ede 36bc b31e 74bd de39 853c 244b 563c
00000130: c4d1 5e3d ee39 80bd ecf6 cfbc ac8c b8bd
00000140: 6100 ba3c 1c43 8b3d cb18 aabc e0f8 593d
00000150: 414b 3a3b 6dd0 64bd 613c 9bbd a02b babd
00000160: eed3 2fbd 8d31 843d 7d2d 093d 3263 98ba
00000170: 3d58 3bbc cb5a 843d 9f77 883b 8bed 10bd
00000180: 83ec ec3c 4319 703d 1dbf 7f3d 6148 e7bc
00000190: 3182 a73d 4871 b0bd 3034 893c 2c97 b83d
000001a0: 46fd 64bd 2e16 f4bc c76a 68bd cbdb 61bd
000001b0: 4580 103c 60b2 1fbd 6477 a03d 3951 033c
000001c0: a1e4 87bd 8b02 90bd 07ee 5cbb ef98 c3bc
000001d0: 72c5 6b3d 934c d9bc 91ce 56bd 5bea a0bd
000001e0: ddb6 8e3d 0f20 7cbd b8f6 b43d 66c2 b33d
000001f0: 6b96 a6bc d56e 9f3d c07e aabd 0373 843c
00000200: 8ee5 19bd b17f b23d 2bf2 663d 4a7d 94bd
00000210: 32c2 0f3d 8e14 d93d 1352 3e3d f7bf bc3d
00000220: 2658 2bbd 54a2 b9bd c8da eabc a5cf ac3d
00000230: 9e46 be3d d9b2 b2bc 3518 333d 96a8 90bb
00000240: 65b1 23bd c149 353d e91c 36bd 3f85 a6bd
00000250: d0da 763c 627d b4bd c946 463d c99e d3bd
00000260: 0345 6bbc 8307 ca3d 58ca c4bc b924 8a3d
00000270: 35cd 3fbc 7420 dabb 359a aebd cd98 debb
00000280: c5d4 87bb 702f fd3d 4200 033d b8d4 85bd
00000290: a031 81bd 3075 6fbd 33d3 553d 2c27 c3bd
000002a0: a585 f6bd 3b51 ce3c 98a6 d5bd 4304 073d
000002b0: bcc4 c8bc dd22 893d 147c e0bd 8442 92bd
000002c0: 580b 893d 6dd4 8fbd c272 dcbd 6534 bcba
000002d0: 6eb9 7abd 4363 9d3d e9f8 0abd d81e 27bd
000002e0: 3bba c43d dcf3 f7bc e2f3 493d 56dd a0bd
000002f0: c725 1bbd e510 7bbd 44aa 3a3e 72e9 083c
00000300: 2465 d7bc 903c e1bc 8318 ae3d 8d4a 3bbd
00000310: 9e85 363c 5c13 a4bd c4b2 cabc 038e 9cbb
00000320: f63b 0bbd ffb1 b13d 7f79 a9bd 4172 3bbd
00000330: 80de 36be 81ef a6bd 3903 18bd c521 103d
00000340: 9b6c 57bc ad08 6bbc 2cb3 3ebd 3e6e df3d
00000350: 0b2e 203e 3562 cbba 56a7 adbd c6bc 83bd
00000360: 1c60 033d 570b 393d 1321 c0bd a218 f2bd
00000370: 83ed 823d d434 97bd f001 20bc ee35 843c
00000380: d1e3 0a3d 25b0 433d c2d2 313d 133e 55bb
00000390: 50f7 ac3d a765 34bd 1384 01bd 41af b83d
000003a0: 2245 88bd 83aa 4f3d 5596 773d 64d6 edbb
000003b0: 96f2 10bd b0d0 d6bd 2293 a03c daff 3ebd
000003c0: ae09 f4bd 61b5 9cbd dd12 65bd befd de3d
000003d0: 8953 bd3d 57ac 3dbe 1c90 99bd 7ef0 383d
000003e0: fab2 b13d a12f 733d 8e74 80bd d45e 833d
000003f0: 971a dcbc 4921 a7bd 00cc 813d 1bae 953d
-0.08032513 -0.06999341 -0.08736304 -0.055465125 0.064178824 -0.030671608 -0.072119996 -0.039008476
-0.0016632774 -0.062425762 0.005578561 0.015738785 -0.00033538902 -0.06210344 0.017423308 -0.040762987
-0.014222371 0.061401654 -0.032046407 -0.08304823 -0.0788193 0.07753392 -0.02286502 -0.031013548
-0.0020899302 -0.042086836 0.078347445 0.04108559 0.081055224 -0.027040927 -0.07121053 -0.020127853
0.06639122 -0.031572994 -0.018687619 -0.040470667 -0.06629384 0.011725802 0.031498324 -0.057726566
-0.08506467 -0.0064188736 -0.084509134 -0.05714385 0.0034864254 0.06288105 0.021658614 -0.05451124
-0.08288579 0.073240906 -0.01526811 -0.04752965 0.0661961 0.0046610506 -0.041973826 0.06089261
-0.07561925 -0.083309144 0.013784759 -0.062731385 0.084254675 0.026385691 0.077853344 -0.079030775
-0.03307956 -0.076559946 -0.026699685 0.061513003 0.02322429 -0.06426373 -0.05349795 0.03499247
-0.01116143 -0.05959959 0.016262945 0.013079438 0.054399267 -0.06261049 -0.025386296 -0.09011206
0.022705259 0.067999095 -0.020763775 0.05321586 0.0028426202 -0.055862833 -0.07579876 -0.09090352
-0.04292672 0.064547636 0.033490647 -0.0011626242 -0.011434612 0.0646263 0.0041646506 -0.03538279
0.028921371 0.05861784 0.06243812 -0.028232755 0.08179129 -0.08615357 0.016748518 0.09013209
-0.055905603 -0.029795732 -0.056742456 -0.05514125 0.008819644 -0.03898847 0.07835272 0.00801497
-0.066354044 -0.07031735 -0.0033711211 -0.023876635 0.057561345 -0.026525771 -0.05244309 -0.078572
0.06968472 -0.06155401 0.0883612 0.08777313 -0.020335397 0.077848114 -0.08324957 0.016168123
-0.037572436 0.087157615 0.056383293 -0.072504595 0.03509731 0.105996236 0.04646499 0.09216302
-0.04183211 -0.09064165 -0.028668776 0.084380426 0.09290813 -0.021813797 0.043724257 -0.0044146283
-0.0399641 0.04425979 -0.044461165 -0.081308834 0.015066817 -0.088129774 0.04840735 -0.1033302
-0.014359715 0.09864714 -0.024022266 0.067452855 -0.01170664 -0.0066567007 -0.085255064 -0.0067931176
-0.004145237 0.123625636 0.031982668 -0.065347135 -0.06308293 -0.058461368 0.05220337 -0.09528956
-0.120372094 0.025185218 -0.10432166 0.03296305 -0.024507873 0.06696103 -0.10961166 -0.07141593
0.06691617 -0.07022939 -0.10764076 -0.0014358877 -0.061211996 0.07684948 -0.033928785 -0.0408009
0.09605833 -0.030267648 0.04930485 -0.078547165 -0.037877824 -0.06129541 0.18229014 0.008356439
-0.026293345 -0.027494699 0.08500769 -0.045725394 0.011140255 -0.08011505 -0.024743445 -0.0047776713
-0.03399273 0.08676528 -0.08275127 -0.045763258 -0.17858315 -0.081511505 -0.03711245 0.035188455
-0.013148452 -0.01434533 -0.04655759 0.10909699 0.15642564 -0.0015516939 -0.084791824 -0.0643249
0.03207408 0.04517683 -0.093813084 -0.118211046 0.06392958 -0.07383123 -0.009766087 0.016138997
0.03390867 0.047775406 0.043413885 -0.003253822 0.084456086 -0.044042256 -0.031620096 0.09017802
-0.06653811 0.050699722 0.060446102 -0.0072582234 -0.035387598 -0.10489023 0.019601408 -0.046630718
-0.11915909 -0.07651783 -0.055926193 0.10888241 0.09244449 -0.18522774 -0.0749819 0.045151226
0.08676715 0.059371594 -0.06272231 0.064145714 -0.026868148 -0.081606455 0.06337738 0.073085986

fc2.bias f4 [84]
00000000: 7e09 fdbc 49cd be3d 0ba8 afbd 68f6 f73c
00000010: 2cbf 85bc 0abc 5a3d 84a5 8cbd b23c bfbd
00000020: de61 2ebd 95fd b8bd 2609 933d 0ff1 0ebd
00000030: 659b 7dbd 87f1 bf3d 35a9 d23c 3dfc 59bd
00000040: 1120 1f3d 9521 d23d 9265 b33d b03e d33b
00000050: 717f 8ebd d754 68ba d159 91bc 6be0 2f3d
00000060: 9553 4dbd 7aa9 073e d180 e33c 8a0d f2bb
00000070: 2749 9a3b ef64 513d b946 1bbd 54b7 b43d
00000080: ef74 cb3c 59bf 6d3d 412a 203d eab2 423c
00000090: 1022 013c 2e64 b53d acfe 0b3b f22d 8c3d
000000a0: 6317 333d e6c0 073d 7e07 843d c376 5abd
000000b0: cd5b bd3c 2e28 473d 4af8 7dbc 0d74 e63d
000000c0: 1c6b f33c 5777 393c ae9d 83bd 84b9 a73d
000000d0: 724c bfbc b6cf a4bc 8738 8d3d 44f2 983d
000000e0: 54f7 43bd 2913 a9bd b347 7fbd b5c7 df3d
000000f0: 44cc 4ebd c463 933d 6bb8 9cbc 169c 52bd
00000100: 11ab 1eba b913 a0bc b91a e1ba c9cf 06bd
00000110: d596 b23d a333 44bd 4614 673d a0e5 113d
00000120: 89d7 cf3d e398 863d b375 8ebc 6cf1 9bbd
00000130: af61 a6bd 4b39 98bc 5690 a1bc 292f c43d
00000140: 8594 b63c 9fff 62bd d348 323d 6224 c9bd
-0.030888315 0.09316499 -0.085769735 0.030268863 -0.01632651 0.053401984 -0.06867507 -0.093377486
-0.042573802 -0.09032742 0.07179479 -0.03489786 -0.061915774 0.093722396 0.02571545 -0.05321907
0.03884894 0.102603115 0.087596074 0.006446682 -0.06957901 -0.000886274 -0.017743023 0.04293863
-0.05012854 0.13248244 0.027771385 -0.007386868 0.0047084275 0.05112165 -0.037909243 0.088240296
0.024836032 0.05804381 0.039102796 0.011883477 0.007881656 0.088569984 0.0021361513 0.06844701
0.043723475 0.033142947 0.064467415 -0.053335916 0.023115063 0.048622303 -0.015501091 0.11252604
0.02971416 0.011319957 -0.064265594 0.08189681 -0.023351882 -0.020118576 0.06895547 0.074680835
-0.047843292 -0.08255608 -0.062324237 0.10926763 -0.05048777 0.07196763 -0.019130906 -0.051418386
-0.00060527126 -0.019540654 -0.0017174102 -0.032913003 0.08720175 -0.047900807 0.05641582 0.035619378
0.10148532 0.065721296 -0.017390108 -0.07614407 -0.081241004 -0.018582007 -0.019722145 0.095793076
0.022287617 -0.05541956 0.04352648 -0.098213926

fc3.weight f4 [10, 84]
00000000: c575 b1bd eb07 953c 2e5b 993d 342a 153e
00000010: 2529 fc3d 0180 eb3d 223d 27be 0ee1 203c
00000020: 97c3 5f3b 65b9 bbbd 1eea 4bbb f49b 633e
00000030: 500b 63be b351 1c3e fc51 353e 6da0 a6bc
00000040: 0483 8dbe 9dc0 e33d 8b6a b1be 6c2f b9be
00000050: c997 42be aeda 0dbd 68d6 f33c 33d6 febc
00000060: c6ac 8dbc 6511 68be 4fd2 1f3e f192 733e
00000070: abd2 cdbd b3fd 9bbd 81b7 e5bc 9c50 52be
00000080: f004 24be c55d adbd 379c 0f3e dea9 243e
00000090: 33a5 b2bd 8856 babd c217 14be 38dc 77be
000000a0: 7e6e b73d 3411 bcbc 29cd 933d d89f c7bc
000000b0: 3745 153e 5cdc debc 3c38 293c b9c9 61bd
000000c0: be29 983d b47c d4be deaf b53d c727 143e
000000d0: 1e8e 6f3e 4e57 87bd c8af c93d 7355 a23e
000000e0: 854a 22be edc2 9b3d 8e9d adbd 4610 9f3d
000000f0: e2e5 e43d bd50 623e d9d6 0e3d 5fef b8bd
00000100: a351 5abe f483 8bbd df3c 4c3e 823c 113e
00000110: 5a81 9abe 3fda a1bd 40c3 143e e64c 783d
00000120: cf07 303e 07d0 043e d30e c2bd 6ba7 c2bd
00000130: 0e50 bfbd db4c 53be c2f4 e13d 7459 34be
00000140: c76d 28be d39f 46bd b47f bbbc 75da 6f3b
00000150: 1758 11bd 5696 4bbe c183 7e3e 6bd2 8b3e
00000160: a8f7 7cbe e40f e6bd 5999 80bd 8571 0a3e
00000170: b49d dcbd ca36 c43c c160 47be 8fa2 c93d
00000180: b8d9 533e 69cc 933e 8468 4dbe 205f cc3d
00000190: bf00 ba3c 77db 173e 1a69 e83e ceba 663e
000001a0: e585 4e3e 3720 a4be f1f1 86bd 58af 23be
000001b0: d974 1a3e 121b 7e3c 9184 0ebd 7ef0 543b
000001c0: 9b7f b73d 5501 963d ff4e 333e ed14 5fbd
000001d0: 923d 3dbe 3d4d 23be 9989 17be 2eda 003e
000001e0: e61c 7dbd 1dab 7a3e 7b5d 1dbe a5c3 84bd
000001f0: b240 283d d57b 913e 9be1 85be 4dcc a1bd
00000200: 56da 403e 3cdc 57bd 1e7f 45bc 782c 4b3e
00000210: ee69 c63d 3056 f23d c209 4d3c 65d3 0a3e
00000220: a92a 36bd 14be b53d 56fd 6fbe 613b 2b3d
00000230: ec24 603d 9c2a 1d3e bde6 d03d 6517 4a3e
00000240: 88ca efbd f420 39bd 1b92 c5bd 41fe 193e
00000250: e838 52be aa54 94bc 2010 bb39 97e9 9d3d
00000260: bc28 103e c038 2ebe d7d5 ae3d cd10 023e
00000270: 9f03 91be 9f57 12be bbb2 63bd 75af f2bc
00000280: c1d6 92bd b63b 8dbd b786 0bbe b5ed cdbd
00000290: a83d 863c f7a3 d3bd f006 923d fafd 923d
000002a0: 6467 c7bd d274 863d 49c4 153d 69e8 1e3e
000002b0: 12e5 1fbd cea5 89bd 1aa9 8abc 2d5b 48be
000002c0: 5fb8 793e 18d9 b9bc f334 293e 0e49 a9bd
000002d0: 7b83 abbc 3540 46bd b734 c63d 5091 a23d
000002e0: 6e90 d13d faa7 753d 7459 f43b 049b 8dbe
000002f0: 2f4b 1abe b9c0 863e c1ea bdbd 52cd bc3c
00000300: e593 313e 2282 333e 2427 57be ef57 823d
00000310: 7f54 4abd 66b6 dabd e73b 563e 58a3 95be
00000320: 41b1 02be bda7 103d 0950 513c a569 f1be
00000330: a1f7 df3d 7a63 4a3e a6e5 d23e df95 aabe
00000340: 023a 2ebc 85ff 92bd 244b fdbd 2410 8fbc
00000350: b2a8 2abd 38e6 2abe 5df5 9bbe 2651 473c
00000360: 6363 043d a661 9fbe 9236 44bd 4b8d 443e
00000370: 235e 3f3e 43dc 363d ca7c d23e e0eb f8bb
00000380: 41c0 8f3e ad92 6ebd 69ef ecbc d7b5 053e
00000390: 5280 2abe 3fc8 ba3d 73df f1bc 6b0a ba3d
000003a0: c449 ecbe 940b 043f 6191 3ebe 85f9 aebd
000003b0: ed02 63bd 8a84 22bd c5e7 b8bc 44d4 61bc
000003c0: bf07 083e 7254 993d 1d78 19bd 38f0 90bc
000003d0: c378 06be 487b 483c 1a3f 6cbe 1665 49bd
000003e0: 1ef4 95be 4b73 973c 2eac f2bc 8961 b23d
000003f0: ec3d a93d 88c9 9a3d 70d1 993e 727d 09be
-0.08665041 0.018192252 0.07488094 0.1456688 0.12312535 0.11499024 -0.16331914 0.009819282
0.003414368 -0.091662206 -0.0031114887 0.2222746 -0.22172284 0.15265541 0.17707056 -0.020340169
-0.2763902 0.111207224 -0.34651598 -0.36168993 -0.19003214 -0.034632377 0.029765323 -0.031107998
-0.017294299 -0.22662885 0.1560757 0.23786522 -0.10049947 -0.07616749 -0.028041603 -0.20538563
-0.16017509 -0.08465151 0.14024435 0.16080424 -0.087229155 -0.09098536 -0.14462188 -0.242051
0.089566216 -0.022957422 0.072168656 -0.024368212 0.14577185 -0.027204685 0.010328349 -0.05512402
0.07429837 -0.4150139 0.08871435 0.14468299 0.23394057 -0.06608449 0.09847981 0.31705818
-0.1584874 0.076055385 -0.08477317 0.07766776 0.11176659 0.22101112 0.034872863 -0.090300314
-0.21320204 -0.068122774 0.19945095 0.14183238 -0.30176812 -0.07902955 0.14527607 0.06062021
0.17190479 0.12969981 -0.09475484 -0.09504589 -0.09341441 -0.20634787 0.11033012 -0.17612249
-0.16448127 -0.048492264 -0.022888042 0.0036598716 -0.0354844 -0.19881567 0.24854948 0.27308974
-0.24703848 -0.112335 -0.06279249 0.13519867 -0.10772267 0.023951907 -0.19470502 0.09845459
0.20688522 0.2886689 -0.20059401 0.09979081 0.022705434 0.14829813 0.45392686 0.22532198
0.20168264 -0.32055828 -0.065891154 -0.15984857 0.15083636 0.015509384 -0.034794394 0.0032491977
0.08959886 0.07324473 0.17510603 -0.054463316 -0.18480518 -0.15947433 -0.14798583 0.12583229
-0.061795138 0.24479337 -0.15367691 -0.06482629 0.041077323 0.2841479 -0.26148686 -0.079002954
0.18833289 -0.052700266 -0.012054233 0.19841182 0.09688173 0.11832845 0.0125145335 0.13557203
-0.044474278 0.08874145 -0.23436484 0.041804675 0.05472271 0.15348285 0.1020026 0.19735487
-0.11708552 -0.045197442 -0.09647008 0.15038396 -0.2052952 -0.018106777 0.00035679433 0.07710569
0.14078039 -0.17013836 0.085368805 0.12701721 -0.28323075 -0.14291237 -0.055590373 -0.02962468
-0.07169867 -0.068961546 -0.13625608 -0.10055105 0.016386822 -0.10334008 0.071302295 0.071773484
-0.09736517 0.065652505 0.036564145 0.15518345 -0.039036818 -0.06721078 -0.016926337 -0.19566031
0.24386738 -0.022686526 0.16524105 -0.08265887 -0.020936718 -0.048401076 0.09678023 0.079378724
0.10232626 0.059974648 0.0074569527 -0.2765733 -0.15067743 0.2631891 -0.092732914 0.023047123
0.17341574 0.1753011 -0.21011025 0.06364428 -0.049396988 -0.10679321 0.20921288 -0.29226184
-0.1276293 0.035316218 0.0127754295 -0.47150913 0.10935903 0.1976451 0.41190833 -0.33317468
-0.010633947 -0.07177643 -0.123678476 -0.017463751 -0.041664787 -0.16689384 -0.30460635 0.012165343
0.032321345 -0.31129187 -0.047903605 0.19194524 0.18688254 0.04464365 0.41110831 -0.007596478
0.28076366 -0.05824535 -0.028922753 0.13057648 -0.16650513 0.09120225 -0.029525494 0.09084018
-0.4615003 0.51580167 -0.18610145 -0.08543686 -0.055422712 -0.03967718 -0.022571454 -0.013783518
0.13284205 0.0748681 -0.037468065 -0.01769267 -0.13132004 0.012236424 -0.23070946 -0.04916867
-0.2928781 0.018487593 -0.029623117 0.087100096 0.08263764 0.0755797 0.300426 -0.1342676

fc3.bias f4 [10]
00000000: 339a 01be 1758 8d3c 2223 eb3c acfe 913c
00000010: 323e 9dbd 6e5b aabb 745a b0bd d553 363c
00000020: 1cb5 0cbd ce60 30bd
-0.12656479 0.017253919 0.028703276 0.017821632 -0.076778784 -0.0051988875 -0.086110026 0.011128386
-0.034352407 -0.04306107
